7767517
126 147
Input            input0                   0 1 input0
Convolution      253                      1 1 input0 253 0=64 1=7 11=7 2=1 12=1 3=2 13=2 4=3 14=3 15=3 16=3 5=1 6=9408
ReLU             255                      1 1 253 255
Pooling          256                      1 1 255 256 0=0 1=3 11=3 2=2 12=2 3=1 13=1 14=1 15=1 5=1
Split            splitncnn_0              1 2 256 256_splitncnn_0 256_splitncnn_1
Convolution      257                      1 1 256_splitncnn_1 257 0=64 1=3 11=3 2=1 12=1 3=1 13=1 4=1 14=1 15=1 16=1 5=1 6=36864
ReLU             259                      1 1 257 259
Convolution      260                      1 1 259 260 0=64 1=3 11=3 2=1 12=1 3=1 13=1 4=1 14=1 15=1 16=1 5=1 6=36864
BinaryOp         262                      2 1 260 256_splitncnn_0 262 0=0
ReLU             263                      1 1 262 263
Split            splitncnn_1              1 2 263 263_splitncnn_0 263_splitncnn_1
Convolution      264                      1 1 263_splitncnn_1 264 0=64 1=3 11=3 2=1 12=1 3=1 13=1 4=1 14=1 15=1 16=1 5=1 6=36864
ReLU             266                      1 1 264 266
Convolution      267                      1 1 266 267 0=64 1=3 11=3 2=1 12=1 3=1 13=1 4=1 14=1 15=1 16=1 5=1 6=36864
BinaryOp         269                      2 1 267 263_splitncnn_0 269 0=0
ReLU             270                      1 1 269 270
Split            splitncnn_2              1 2 270 270_splitncnn_0 270_splitncnn_1
Convolution      271                      1 1 270_splitncnn_1 271 0=128 1=3 11=3 2=1 12=1 3=2 13=2 4=1 14=1 15=1 16=1 5=1 6=73728
ReLU             273                      1 1 271 273
Convolution      274                      1 1 273 274 0=128 1=3 11=3 2=1 12=1 3=1 13=1 4=1 14=1 15=1 16=1 5=1 6=147456
Convolution      276                      1 1 270_splitncnn_0 276 0=128 1=1 11=1 2=1 12=1 3=2 13=2 4=0 14=0 15=0 16=0 5=1 6=8192
BinaryOp         278                      2 1 274 276 278 0=0
ReLU             279                      1 1 278 279
Split            splitncnn_3              1 2 279 279_splitncnn_0 279_splitncnn_1
Convolution      280                      1 1 279_splitncnn_1 280 0=128 1=3 11=3 2=1 12=1 3=1 13=1 4=1 14=1 15=1 16=1 5=1 6=147456
ReLU             282                      1 1 280 282
Convolution      283                      1 1 282 283 0=128 1=3 11=3 2=1 12=1 3=1 13=1 4=1 14=1 15=1 16=1 5=1 6=147456
BinaryOp         285                      2 1 283 279_splitncnn_0 285 0=0
ReLU             286                      1 1 285 286
Split            splitncnn_4              1 3 286 286_splitncnn_0 286_splitncnn_1 286_splitncnn_2
Convolution      287                      1 1 286_splitncnn_2 287 0=256 1=3 11=3 2=1 12=1 3=2 13=2 4=1 14=1 15=1 16=1 5=1 6=294912
ReLU             289                      1 1 287 289
Convolution      290                      1 1 289 290 0=256 1=3 11=3 2=1 12=1 3=1 13=1 4=1 14=1 15=1 16=1 5=1 6=589824
Convolution      292                      1 1 286_splitncnn_1 292 0=256 1=1 11=1 2=1 12=1 3=2 13=2 4=0 14=0 15=0 16=0 5=1 6=32768
BinaryOp         294                      2 1 290 292 294 0=0
ReLU             295                      1 1 294 295
Split            splitncnn_5              1 2 295 295_splitncnn_0 295_splitncnn_1
Convolution      296                      1 1 295_splitncnn_1 296 0=256 1=3 11=3 2=1 12=1 3=1 13=1 4=1 14=1 15=1 16=1 5=1 6=589824
ReLU             298                      1 1 296 298
Convolution      299                      1 1 298 299 0=256 1=3 11=3 2=1 12=1 3=1 13=1 4=1 14=1 15=1 16=1 5=1 6=589824
BinaryOp         301                      2 1 299 295_splitncnn_0 301 0=0
ReLU             302                      1 1 301 302
Split            splitncnn_6              1 3 302 302_splitncnn_0 302_splitncnn_1 302_splitncnn_2
Convolution      303                      1 1 302_splitncnn_2 303 0=512 1=3 11=3 2=1 12=1 3=2 13=2 4=1 14=1 15=1 16=1 5=1 6=1179648
ReLU             305                      1 1 303 305
Convolution      306                      1 1 305 306 0=512 1=3 11=3 2=1 12=1 3=1 13=1 4=1 14=1 15=1 16=1 5=1 6=2359296
Convolution      308                      1 1 302_splitncnn_1 308 0=512 1=1 11=1 2=1 12=1 3=2 13=2 4=0 14=0 15=0 16=0 5=1 6=131072
BinaryOp         310                      2 1 306 308 310 0=0
ReLU             311                      1 1 310 311
Split            splitncnn_7              1 2 311 311_splitncnn_0 311_splitncnn_1
Convolution      312                      1 1 311_splitncnn_1 312 0=512 1=3 11=3 2=1 12=1 3=1 13=1 4=1 14=1 15=1 16=1 5=1 6=2359296
ReLU             314                      1 1 312 314
Convolution      315                      1 1 314 315 0=512 1=3 11=3 2=1 12=1 3=1 13=1 4=1 14=1 15=1 16=1 5=1 6=2359296
BinaryOp         317                      2 1 315 311_splitncnn_0 317 0=0
ReLU             318                      1 1 317 318
Convolution      319                      1 1 286_splitncnn_0 319 0=64 1=1 11=1 2=1 12=1 3=1 13=1 4=0 14=0 15=0 16=0 5=1 6=8192
ReLU             321                      1 1 319 321 0=1.000000e-01
Convolution      322                      1 1 302_splitncnn_0 322 0=64 1=1 11=1 2=1 12=1 3=1 13=1 4=0 14=0 15=0 16=0 5=1 6=16384
ReLU             324                      1 1 322 324 0=1.000000e-01
Convolution      325                      1 1 318 325 0=64 1=1 11=1 2=1 12=1 3=1 13=1 4=0 14=0 15=0 16=0 5=1 6=32768
ReLU             327                      1 1 325 327 0=1.000000e-01
Split            splitncnn_8              1 3 327 327_splitncnn_0 327_splitncnn_1 327_splitncnn_2
Interp           344                      1 1 327_splitncnn_2 344 0=1 1=2.000000e+00 2=2.000000e+00
BinaryOp         345                      2 1 324 344 345 0=0
Convolution      346                      1 1 345 346 0=64 1=3 11=3 2=1 12=1 3=1 13=1 4=1 14=1 15=1 16=1 5=1 6=36864
ReLU             348                      1 1 346 348 0=1.000000e-01
Split            splitncnn_9              1 3 348 348_splitncnn_0 348_splitncnn_1 348_splitncnn_2
Interp           365                      1 1 348_splitncnn_2 365 0=1 1=2.000000e+00 2=2.000000e+00
BinaryOp         366                      2 1 321 365 366 0=0
Convolution      367                      1 1 366 367 0=64 1=3 11=3 2=1 12=1 3=1 13=1 4=1 14=1 15=1 16=1 5=1 6=36864
ReLU             369                      1 1 367 369 0=1.000000e-01
Split            splitncnn_10             1 2 369 369_splitncnn_0 369_splitncnn_1
Convolution      370                      1 1 369_splitncnn_1 370 0=32 1=3 11=3 2=1 12=1 3=1 13=1 4=1 14=1 15=1 16=1 5=1 6=18432
Convolution      372                      1 1 369_splitncnn_0 372 0=16 1=3 11=3 2=1 12=1 3=1 13=1 4=1 14=1 15=1 16=1 5=1 6=9216
ReLU             374                      1 1 372 374 0=1.000000e-01
Split            splitncnn_11             1 2 374 374_splitncnn_0 374_splitncnn_1
Convolution      375                      1 1 374_splitncnn_1 375 0=16 1=3 11=3 2=1 12=1 3=1 13=1 4=1 14=1 15=1 16=1 5=1 6=2304
Convolution      377                      1 1 374_splitncnn_0 377 0=16 1=3 11=3 2=1 12=1 3=1 13=1 4=1 14=1 15=1 16=1 5=1 6=2304
ReLU             379                      1 1 377 379 0=1.000000e-01
Convolution      380                      1 1 379 380 0=16 1=3 11=3 2=1 12=1 3=1 13=1 4=1 14=1 15=1 16=1 5=1 6=2304
Concat           382                      3 1 370 375 380 382 0=0
ReLU             383                      1 1 382 383
Split            splitncnn_12             1 2 383 383_splitncnn_0 383_splitncnn_1
Convolution      384                      1 1 348_splitncnn_1 384 0=32 1=3 11=3 2=1 12=1 3=1 13=1 4=1 14=1 15=1 16=1 5=1 6=18432
Convolution      386                      1 1 348_splitncnn_0 386 0=16 1=3 11=3 2=1 12=1 3=1 13=1 4=1 14=1 15=1 16=1 5=1 6=9216
ReLU             388                      1 1 386 388 0=1.000000e-01
Split            splitncnn_13             1 2 388 388_splitncnn_0 388_splitncnn_1
Convolution      389                      1 1 388_splitncnn_1 389 0=16 1=3 11=3 2=1 12=1 3=1 13=1 4=1 14=1 15=1 16=1 5=1 6=2304
Convolution      391                      1 1 388_splitncnn_0 391 0=16 1=3 11=3 2=1 12=1 3=1 13=1 4=1 14=1 15=1 16=1 5=1 6=2304
ReLU             393                      1 1 391 393 0=1.000000e-01
Convolution      394                      1 1 393 394 0=16 1=3 11=3 2=1 12=1 3=1 13=1 4=1 14=1 15=1 16=1 5=1 6=2304
Concat           396                      3 1 384 389 394 396 0=0
ReLU             397                      1 1 396 397
Split            splitncnn_14             1 2 397 397_splitncnn_0 397_splitncnn_1
Convolution      398                      1 1 327_splitncnn_1 398 0=32 1=3 11=3 2=1 12=1 3=1 13=1 4=1 14=1 15=1 16=1 5=1 6=18432
Convolution      400                      1 1 327_splitncnn_0 400 0=16 1=3 11=3 2=1 12=1 3=1 13=1 4=1 14=1 15=1 16=1 5=1 6=9216
ReLU             402                      1 1 400 402 0=1.000000e-01
Split            splitncnn_15             1 2 402 402_splitncnn_0 402_splitncnn_1
Convolution      403                      1 1 402_splitncnn_1 403 0=16 1=3 11=3 2=1 12=1 3=1 13=1 4=1 14=1 15=1 16=1 5=1 6=2304
Convolution      405                      1 1 402_splitncnn_0 405 0=16 1=3 11=3 2=1 12=1 3=1 13=1 4=1 14=1 15=1 16=1 5=1 6=2304
ReLU             407                      1 1 405 407 0=1.000000e-01
Convolution      408                      1 1 407 408 0=16 1=3 11=3 2=1 12=1 3=1 13=1 4=1 14=1 15=1 16=1 5=1 6=2304
Concat           410                      3 1 398 403 408 410 0=0
ReLU             411                      1 1 410 411
Split            splitncnn_16             1 2 411 411_splitncnn_0 411_splitncnn_1
Convolution      412                      1 1 383_splitncnn_1 412 0=8 1=1 11=1 2=1 12=1 3=1 13=1 4=0 14=0 15=0 16=0 5=1 6=512
Permute          413                      1 1 412 413 0=3
Reshape          423                      1 1 413 423 0=4 1=-1
Convolution      424                      1 1 397_splitncnn_1 424 0=8 1=1 11=1 2=1 12=1 3=1 13=1 4=0 14=0 15=0 16=0 5=1 6=512
Permute          425                      1 1 424 425 0=3
Reshape          435                      1 1 425 435 0=4 1=-1
Convolution      436                      1 1 411_splitncnn_1 436 0=8 1=1 11=1 2=1 12=1 3=1 13=1 4=0 14=0 15=0 16=0 5=1 6=512
Permute          437                      1 1 436 437 0=3
Reshape          447                      1 1 437 447 0=4 1=-1
Concat           output0                  3 1 423 435 447 output0 0=0
Convolution      449                      1 1 383_splitncnn_0 449 0=4 1=1 11=1 2=1 12=1 3=1 13=1 4=0 14=0 15=0 16=0 5=1 6=256
Permute          450                      1 1 449 450 0=3
Reshape          460                      1 1 450 460 0=2 1=-1
Convolution      461                      1 1 397_splitncnn_0 461 0=4 1=1 11=1 2=1 12=1 3=1 13=1 4=0 14=0 15=0 16=0 5=1 6=256
Permute          462                      1 1 461 462 0=3
Reshape          472                      1 1 462 472 0=2 1=-1
Convolution      473                      1 1 411_splitncnn_0 473 0=4 1=1 11=1 2=1 12=1 3=1 13=1 4=0 14=0 15=0 16=0 5=1 6=256
Permute          474                      1 1 473 474 0=3
Reshape          484                      1 1 474 484 0=2 1=-1
Concat           485                      3 1 460 472 484 485 0=0
Softmax          486                      1 1 485 486 0=1 1=1
